data.pth (torch, 5418 bytes, 6 tensors)

ll1.weight f4 [8, 54]
-0.18018618 -0.31370434 0.09368076 0.4144513 0.43619215 0.78515387 0.26467776 0.22233692
0.09177193 0.30115175 0.42678788 -0.13521188 0.32835466 -0.17588472 -0.12684564 -0.16733871
0.41988316 0.8592927 0.4606661 0.55064565 -0.16075729 0.45618266 0.47284052 0.24489921
-0.08046903 0.29387558 0.45753637 -0.3681589 0.26814124 -0.5099162 0.41700464 -0.11636777
-0.11981409 0.17848027 -0.16364908 -0.21317056 0.23506951 -0.06220377 0.4627909 0.46774656
0.53334546 0.52238923 -0.09340187 -0.30419528 0.002661383 -0.1321547 -0.61442286 -0.25317276
0.4590829 0.38751417 -0.0150665585 0.35369885 0.24973753 0.13636906 -0.039363693 -0.39202574
-0.012182142 0.33305284 0.5483188 0.08354532 0.18559204 0.07818268 -0.119587906 0.10156348
0.47577575 -0.17638801 0.32132262 -0.007133188 -0.26326707 0.08902626 0.27159816 -0.13565286
0.27062386 0.39243358 -0.122317374 0.5694659 0.60896444 0.2572221 -0.0036229363 0.3370354
0.39195594 -0.28820252 0.37964493 -0.3643418 0.009946153 -0.17905386 -0.029828986 0.099227175
-0.08722503 -0.05165853 0.16725333 -0.040201887 0.1837865 0.3959039 0.04285582 0.48996362
-0.14522171 -0.1568839 0.06361789 -0.05321473 -0.29705018 -0.0072623007 0.42757815 0.5478753
-0.14054918 0.40639544 0.22737063 0.16274373 0.6222427 0.46871185 -0.42510697 0.52178466
0.09882045 -0.64445436 -0.29776114 -0.3064629 -0.5560057 -0.51292634 0.6173231 0.61479187
-0.19588839 0.3988603 0.31394258 0.3327576 0.57651544 -0.70546514 -0.22662516 0.70370156
0.65939665 0.8683401 0.88280654 0.8342194 0.31452763 0.61379 -0.40963173 0.32661355
-0.099612325 0.16753721 -0.3047492 0.48399544 0.538974 -0.3845054 0.23392777 0.3314806
-0.24730052 -0.52723944 -0.19864735 -0.3411787 -0.5280594 -0.45806265 0.38677776 0.29098883
0.08807526 0.26747957 1.1037709 0.57199144 0.15978435 -0.35210374 0.35174987 -0.17505743
-0.26509255 0.06236816 0.15111993 0.750829 0.35870197 0.04085966 0.33376405 0.8837235
0.57860535 0.28972 0.38304344 0.5052826 -0.25253227 -0.15246394 0.096701555 -0.29308057
0.5459608 -0.17578588 -0.1699438 0.57235664 -0.31734803 -0.24507008 0.34259292 -0.25513697
-0.3724345 -0.06709786 0.19836085 0.051727038 -0.20402576 0.67920417 -0.1917022 0.52117884
0.4448725 -0.14590582 0.011078974 0.24658273 0.7654225 -0.22596766 -0.13092352 0.36213198
0.5129741 0.57029957 0.37686545 -0.4316448 -0.15075263 0.72837657 0.082880825 0.9029622
0.107363954 0.20708856 0.091360144 -0.53668153 -0.31606543 -0.44754454 0.4718541 0.29627952
0.26061565 0.623249 0.26682207 0.23754361 -0.080075644 0.7643402 0.12746438 0.20771798
-0.17814964 0.1894135 0.42826095 -0.2033267 -0.074256085 -0.17223774 0.40648994 -0.056035712
0.17840585 0.7786287 -0.3144642 0.18027784 0.15479663 0.10597824 0.22495338 -0.17896362
-0.24254386 0.29577243 -0.28572026 0.5717514 -0.15849477 0.6110521 0.5502282 -0.41623428
0.03321185 0.31784597 0.5033322 -0.06838268 -0.034058787 0.022643713 0.0059844228 -0.096813224
00000000: ba82 38be db9d a0be b3db bf3d f632 d43e
00000010: 9454 df3e d8ff 483f d883 873e 4aac 633e
00000020: ecf2 bb3d 9030 9a3e f183 da3e fc74 0abe
00000030: 1a1e a83e 201b 34be d3e3 01be d75a 2bbe
00000040: edfa d63e 9bfa 5b3f 6ddc eb3e 1df7 0c3f
00000050: 8f9d 24be c690 e93e 2718 f23e dcc6 7a3e
00000060: f2cc a4bd dc76 963e 3542 ea3e 537f bcbe
00000070: cf49 893e de89 02bf a281 d53e 3a52 eebd
00000080: 1761 f5bd 88c3 363e a093 27be 6249 5abe
00000090: 10b6 703e 61c9 7ebd eef2 ec3e 7a7c ef3e
000000a0: 5489 083f 4dbb 053f 7b49 bfbd 7cbf 9bbe
000000b0: 996a 2e3b 9053 07be d14a 1dbf dc9f 81be
000000c0: ea0c eb3e 4268 c63e bad9 76bc 0418 b53e
000000d0: 32bb 7f3e 55a4 0b3e d33b 21bd 99b7 c8be
000000e0: 9b97 47bc e785 aa3e 9f5e 0c3f cf19 ab3d
000000f0: d70b 3e3e 3e1e a03d 81ea f4bd 8400 d03d
00000100: e198 f33e 0f9f 34be 6684 a43e 85bd e9bb
00000110: f1ca 86be 6653 b63d ea0e 8b3e 95e8 0abe
00000120: 368f 8a3e 0eed c83e 8881 fabd 84c8 113f
00000130: 18e5 1b3f 9db2 833e c96e 6dbb e78f ac3e
00000140: 73ae c83e 488f 93be d260 c23e 028b babe
00000150: 30f5 223c e559 37be eb5b f4bc 9e37 cb3d
00000160: 09a3 b2bd e597 53bd 7544 2b3e bcaa 24bd
00000170: 8732 3c3e eab3 ca3e 9689 2f3d 83dc fa3e
00000180: 00b5 14be 2ca6 20be 194a 823d b0f7 59bd
00000190: f616 98be 98f8 edbb 86eb da3e 8e41 0c3f
000001a0: 20ec 0fbe 1013 d03e d9d3 683e 4ba6 263e
000001b0: 4c4b 1f3f 00fb ef3e 9fa7 d9be ae93 053f
000001c0: 6062 ca3d f6fa 24bf 2674 98be b5e8 9cbe
000001d0: 6456 0ebf 244f 03bf e308 1e3f 0063 1d3f
000001e0: f796 48be 6b37 cc3e 15bd a03e 345f aa3e
000001f0: 8496 133f 5d99 34bf 6d10 68be c925 343f
00000200: 38ce 283f 894b 5e3f 9cff 613f 678f 553f
00000210: c409 a13e 5721 1d3f 40bb d1be e439 a73e
00000220: 8c01 ccbd e08e 2b3e 1608 9cbe 40ce f73e
00000230: 33fa 093f e4dd c4be c38a 6f3e d3b7 a93e
00000240: 593c 7dbe 2af9 06bf 366a 4bbe f9ae aebe
00000250: e72e 07bf 3087 eabe bc07 c63e 7dfc 943e
00000260: cd60 b43d 15f3 883e 5d48 8d3f 086e 123f
00000270: 829e 233e f146 b4be 8f18 b43e 4142 33be
00000280: 36ba 87be c175 7f3d 2fbf 1a3e 5436 403f
00000290: c9a7 b73e 755c 273d 1fe3 aa3e b43b 623f
000002a0: 7b1f 143f 2e56 943e 451e c43e 335a 013f
000002b0: e94b 81be 821f 1cbe 770b c63d a80e 96be
000002c0: 16c4 0b3f 3701 34be bf05 2ebe f785 123f
000002d0: 717b a2be a7f3 7abe 5768 af3e 50a1 82be
000002e0: bcaf bebe 9a6a 89bd 1b1f 4b3e bbdf 533d
000002f0: 21ec 50be 53e0 2d3f 954d 44be fa6b 053f
00000300: 54c6 e33e 5668 15be 9684 353c 2f80 7c3e
00000310: bbf2 433f 1164 67be d110 06be 5d69 b93e
00000320: 4552 033f 27ff 113f 82f4 c03e 8c00 ddbe
00000330: e65e 1abe e376 3a3f 6cbd a93d 8828 673f
00000340: a2e1 db3d 060f 543e 071b bb3d f663 09bf
00000350: 54d3 a1be 8f24 e5be dc96 f13e f3b1 973e
00000360: 6a6f 853e 3f8d 1f3f e79c 883e a23e 733e
00000370: b3fe a3bd cdab 433f 0686 023e 06b4 543e
00000380: dc6c 36be 9df5 413e 0545 db3e e034 50be
00000390: 9313 98bd 175f 30be 731f d03e b485 65bd
000003a0: 06b0 363e 3654 473f 7401 a1be c19a 383e
000003b0: 0283 1e3e 1f0b d93d 2e5a 663e 3d42 37be
000003c0: 6b5d 78be 7c6f 973e ed49 92be 4d5e 123f
000003d0: 744c 22be e96d 1c3f c1db 0c3f a91c d5be
000003e0: 2609 083d b5bc a23e 61da 003f 380c 8cbd
000003f0: 3a81 0bbd 4f7f b93c fa18 c43b 0346 c6bd

ll1.bias f4 [8]
0.7266809 0.5604298 0.9438315 0.5751524 0.82151383 0.36375234 0.6259288 0.42644107
00000000: c207 3a3f 5478 0f3f f19e 713f 303d 133f
00000010: bb4e 523f bf3d ba3e df3c 203f 7c56 da3e

ll2.weight f4 [8, 8]
0.7369483 0.85781693 1.0359174 0.089527994 0.76001954 -0.87585336 0.37221423 -0.9762444
0.6667594 1.0420128 0.5379544 -0.6805093 -0.40302858 -0.6022416 0.04263388 1.4796678
0.45226362 0.77949566 -0.65024173 -0.87711716 -0.5105254 -0.6413084 -0.24512722 0.8192603
0.79388916 0.7577408 -0.6695658 0.74973154 0.092390455 -0.10332118 0.95990586 0.9216466
0.2665165 -0.066329226 -0.6747827 1.0692749 1.4199946 0.7522558 1.0075729 -0.04758955
-0.31392097 0.014218837 0.11765352 -0.28458476 0.12956998 -0.29296842 -0.0220249 -0.2797076
1.1419287 0.6710628 0.12867379 -0.11209913 0.025930159 -0.15803032 0.2408707 -0.046528835
-0.7101342 -0.17007074 1.4687502 0.33254883 0.3847009 0.93549424 -0.31453386 0.80609673
00000000: a5a8 3c3f e499 5b3f f198 843f 745a b73d
00000010: a490 423f ed37 60bf dd92 be3e 27eb 79bf
00000020: beb0 2a3f ad60 853f 61b7 093f dc35 2ebf
00000030: c359 cebe 812c 1abf dda0 2e3d c165 bd3f
00000040: 198f e73e 078d 473f 3e76 26bf c08a 60bf
00000050: cbb1 02bf ca2c 24bf a102 7bbe 0bbb 513f
00000060: 523c 4b3f 4dfb 413f aa68 2bbf 68ee 3f3f
00000070: 3537 bd3d 0e9a d3bd 64bc 753f 08f1 6b3f
00000080: da74 883e 9ed7 87bd 8fbe 2cbf 00de 883f
00000090: 62c2 b53f d693 403f 26f8 803f 43ed 42bd
000000a0: 40ba a0be 20f6 683c 54f4 f03d 18b5 91be
000000b0: fead 043e f5ff 95be 906d b4bc d635 8fbe
000000c0: b82a 923f c6ca 2b3f 10c3 033e 3b94 e5bd
000000d0: 7c6b d43c b3d2 21be cfa6 763e 0595 3ebd
000000e0: 5bcb 35bf 0627 2ebe 0200 bc3f d743 aa3e
000000f0: 84f7 c43e 8d7c 6f3f 950a a1be 5b5c 4e3f

ll2.bias f4 [8]
0.50870967 -0.0194932 -0.13924748 -0.13628739 0.1961892 -0.32542592 0.40092102 0.5922245
00000000: cc3a 023f 34b0 9fbc e496 0ebe ec8e 0bbe
00000010: d2e5 483e 3a9e a6be 8545 cd3e 069c 173f

ll3.weight f4 [7, 8]
-1.4484787 0.14149481 -0.45658252 -0.82332134 -1.2283055 0.24212918 0.2096647 0.75440884
-1.2287401 -1.1635789 -0.4123414 0.09747757 0.5530861 -0.32791397 -1.7757341 0.23939873
0.5024141 -1.3348831 -0.15836112 0.12187979 0.5440448 0.06285152 0.4622102 -1.37529
0.728879 0.68597305 -1.1540277 0.015366272 -0.7141898 -0.16479526 0.27804258 -0.61657065
-0.101930305 0.5417244 0.8691166 0.20492727 -1.153036 -0.108954236 0.3365578 -1.6076343
-1.3651354 0.1330451 -0.38241485 0.5422615 0.55298865 0.24771497 -0.54672694 -0.7347891
0.465723 -1.4372624 0.030287184 -1.3238717 -0.40256384 -0.25134543 -0.024272813 0.7429482
00000000: c067 b9bf 04e4 103e 2fc5 e9be 30c5 52bf
00000010: 1d39 9dbf b6f0 773e 58b2 563e f020 413f
00000020: 5b47 9dbf 27f0 94bf 691e d3be 52a2 c73d
00000030: 0d97 0d3f 57e4 a7be 414b e3bf f124 753e
00000040: 369e 003f 73dd aabf 6b29 22be 1d9c f93d
00000050: 8546 0b3f 4cb8 803d d1a6 ec3e 8109 b0bf
00000060: d097 3a3f ee9b 2f3f 2eb7 93bf d1c2 7b3c
00000070: 25d5 36bf 17c0 28be 995b 8e3e 93d7 1dbf
00000080: d6c0 d0bd 73ae 0a3f 6d7e 5e3f 74d8 513e
00000090: af96 93bf 6623 dfbd 4e51 ac3e f6c6 cdbf
000000a0: c2bc aebf fa3c 083e e1cb c3be a6d1 0a3f
000000b0: aa90 0d3f fea8 7d3e 4cf6 0bbf 231b 3cbf
000000c0: 3f73 ee3e 37f8 b7bf d41c f83c a174 a9bf
000000d0: d91c cebe 59b0 80be c7d7 c6bc da31 3e3f

ll3.bias f4 [7]
-0.2158869 -0.2352878 -0.19038394 -0.29126805 -0.35761693 0.017919218 0.18168595
00000000: 7511 5dbe 49ef 70be 02f4 42be 1621 95be
00000010: 9119 b7be 53cb 923c e20b 3a3e
