data.pth (torch, 5418 bytes, 6 tensors)

ll1.weight f4 [8, 54]
0	0x3ec90443	0.39261064
1	0xbe8fc1f6	-0.28077668
2	0xbe2f1d78	-0.17101085
3	0x3e9762e9	0.2956765
4	0x3eca6289	0.395283
5	0x3f08fdbd	0.53512174
6	0xbd8f97a4	-0.07011345
7	0xbe174a21	-0.14774372
8	0xbe7a7d7a	-0.24461928
9	0xbe95b801	-0.29241946
10	0x3ecfa9f1	0.40559343
11	0x3eb07c83	0.34469995
12	0x3e72f4e5	0.23726232
13	0x3f1673de	0.5877055
14	0xbcf733eb	-0.030176124
15	0x3ebea11e	0.37232298
16	0x3ecbe369	0.39821938
17	0x3edf0b89	0.43563488
18	0x3f08970a	0.5335547
19	0x3f0cf5c3	0.550625
20	0x3ea536b0	0.32268286
21	0x3f33a4ca	0.70173323
22	0x3f4d48f3	0.80189437
23	0x3f02dd9c	0.511194
24	0x3e90c520	0.28275394
25	0x3f02fec5	0.5117
26	0x3f313cb7	0.6923327
27	0xbeb4f82f	-0.353456
28	0x3eecc6f2	0.46245533
29	0xbed7dc51	-0.42160276
30	0x3e8a5d43	0.27024278
31	0x3eef7bc3	0.4677411
32	0x3e7c8a39	0.24662103
33	0xbdc3c458	-0.09558934
34	0xbdfce0b5	-0.12347547
35	0x3e8b0065	0.27148739
36	0x3ee820ba	0.45337468
37	0xbe2a50f2	-0.1663244
38	0x3daaee74	0.083462626
39	0xbd8c3468	-0.06845933
40	0x3e996497	0.29959556
41	0x3f303c7b	0.68842286
42	0x3eb4b56e	0.3529467
43	0xbd4e0a79	-0.050302956
44	0x3ea704fc	0.3262099
45	0x3d864cd5	0.06557623
46	0xbcbd70f8	-0.023125157
47	0x3e6170a5	0.22015627
48	0x3edcb2f1	0.4310527
49	0x3f3c1032	0.7346221
50	0x3ec6a10b	0.3879474
51	0x3f07d8f3	0.53065413
52	0x3caceb94	0.021108426
53	0x3ed3ba77	0.413532
54	0xbe23877b	-0.1596965
55	0x3f02e7b8	0.51134825
56	0x3ed7cfd2	0.42150742
57	0x3edf8e8c	0.43663442
58	0x3f22fb61	0.63664824
59	0xbf07efbf	-0.531002
60	0x3eaed006	0.34143084
61	0x3e52ad65	0.20573957
62	0x3ec7251c	0.388955
63	0x3e41f2bd	0.18940254
64	0x3eb77d86	0.35837954
65	0xbe47a1e3	-0.19495349
66	0x3e854521	0.26029304
67	0xbe2b90ed	-0.16754504
68	0x3f0e126c	0.5549686
69	0xbe991b86	-0.2990381
70	0x3f19b10d	0.60035783
71	0xbf090197	-0.5351805
72	0xbe69af26	-0.2282072
73	0x3f3caf7e	0.7370528
74	0xbe13468f	-0.14382385
75	0x3f112e3b	0.5671117
76	0x3f2c1b0f	0.6722879
77	0x3e75775c	0.23971313
78	0x3dd6445c	0.10462257
79	0x3edef4ca	0.43546134
80	0xbe62125d	-0.22077318
81	0x3f299007	0.66235393
82	0xbe009b55	-0.12559254
83	0x3f1546e0	0.5831127
84	0xbe8019b7	-0.2501962
85	0xbed2a407	-0.41140768
86	0xbe6e0339	-0.23243417
87	0x3e4e42f1	0.20142724
88	0x3efe455f	0.496623
89	0xbe7b9b3e	-0.24570939
90	0xbe3c5604	-0.18392187
91	0x3efd5110	0.49475908
92	0x3e894087	0.26807043
93	0x3e1b9132	0.15192106
94	0xbeb9cdc9	-0.36289814
95	0xbed57a3d	-0.41694823
96	0xbe47ddf7	-0.19518267
97	0x3ebb0c37	0.36532757
98	0xbbcaff93	-0.0061950176
99	0x3f1e20f0	0.6176901
100	0xbf28d90a	-0.65956175
101	0xbe728303	-0.2368279
102	0x3d5a16df	0.053244468
103	0xbed10162	-0.40821368
104	0xbe2dec4d	-0.16984673
105	0xbe9ce044	-0.3063985
106	0x3e9833e5	0.29727092
107	0x3e06e991	0.13175036
108	0x3f41e57c	0.7574079
109	0x3f25d5f6	0.64779603
110	0x3f04d3b3	0.5188553
111	0xbe3569f5	-0.177162
112	0x3abfc5f3	0.0014631137
113	0x3f4a4e27	0.790255
114	0x3ef063eb	0.4695123
115	0x3f155f7e	0.58348835
116	0x3ec69c8e	0.38791317
117	0x3ee4d423	0.44693097
118	0xbe8d9fe5	-0.27661052
119	0xbe86e8ef	-0.2634959
120	0x3e888b53	0.26668796
121	0xbe27e9fc	-0.16397852
122	0x3ee3ca21	0.4449015
123	0xbe947bc8	-0.29000688
124	0xbe5c980d	-0.21542378
125	0x3f59f594	0.8514035
126	0xbeca05c4	-0.39457524
127	0xbedc718f	-0.43055388
128	0x3f1c6c3f	0.6110267
129	0xbf191dc6	-0.59811056
130	0xbef8ac87	-0.48569128
131	0xbf155bfb	-0.58343476
132	0x3e23a0a9	0.15979256
133	0xbe3eaba3	-0.18620162
134	0xbec2d799	-0.38055113
135	0x3e6893e9	0.22712673
136	0x3c4bf0e7	0.012447572
137	0x3e51f7d4	0.20504695
138	0x3ecdc89f	0.40192124
139	0xbe40bbc1	-0.18821622
140	0x3ee42301	0.44557956
141	0x3f1731b8	0.5906024
142	0x3ed81785	0.42205444
143	0xbeba8338	-0.36428237
144	0xbd5bcc52	-0.053661652
145	0x3ecc42dc	0.3989476
146	0x3f035f11	0.51316935
147	0x3efdf3c5	0.49600044
148	0x3ec040ba	0.37549382
149	0xbf0710f5	-0.5276025
150	0xbe15ff5f	-0.14648198
151	0x3e8024ce	0.2502808
152	0x3ea53199	0.32264403
153	0x3eb1b271	0.34706452
154	0x3f8d222a	1.1026051
155	0x3f1ee797	0.6207213
156	0x3c74c975	0.014940609
157	0xbeea2b4f	-0.45736167
158	0xbe89212e	-0.26783127
159	0xbec42e1e	-0.38316435
160	0x3eeb8dc7	0.46006605
161	0x3f212e9c	0.62961745
162	0xbe4854db	-0.1956362
163	0x3e3fd69c	0.1873421
164	0xbede0eb7	-0.43370602
165	0x3e0f89ad	0.14017363
166	0xbd164d54	-0.03669484
167	0x3f6eda39	0.9330173
168	0xbe9c7da3	-0.30564603
169	0xbec04810	-0.3755498
170	0xbed3fef0	-0.4140544
171	0xbf12007d	-0.57031995
172	0x3ed2a943	0.4114476
173	0x3f2a20a0	0.6645603
174	0x3e839d8e	0.25706142
175	0x3f3c51ac	0.7356212
176	0x3b36c74a	0.0027889782
177	0x3ee806d6	0.45317715
178	0x3e754ae6	0.23954353
179	0x3f73ef36	0.9528688
180	0x3e85b81c	0.26117027
181	0x3eaea5ed	0.34110966
182	0xbe985bd9	-0.29757574
183	0x3eb11ee5	0.34593883
184	0x3ebe6771	0.37188295
185	0x3f58ebcf	0.84734815
186	0x3f05a2c8	0.5220151
187	0x3e76ea2a	0.24112764
188	0x3e85e560	0.26151562
189	0x3e0b76e3	0.1361957
190	0x3e92b742	0.2865544
191	0x3e223734	0.15841371
192	0x3f4a9f4e	0.7914933
193	0x3f265630	0.6497526
194	0xbcc99a43	-0.02460969
195	0xbeb23667	-0.3480713
196	0x3e2d561f	0.16927384
197	0x3f29a9db	0.66274804
198	0x3e560b04	0.2090264
199	0xbe960cbb	-0.29306588
200	0xbe76e55c	-0.24110931
201	0xbe881eb3	-0.26585922
202	0x3f2d7d0e	0.67768943
203	0x3eef94f9	0.46793345
204	0x3f07f9f8	0.531158
205	0x3dc501db	0.096194945
206	0x3f08478b	0.53234166
207	0x3e6f241d	0.2335362
208	0xbf599098	-0.8498626
209	0xbeb68cef	-0.356544
210	0x3eb02200	0.3440094
211	0x3ed6329a	0.4183548
212	0x3f20a230	0.6274748
213	0x3ebbec6e	0.3670382
214	0xbe4ab4d9	-0.1979555
215	0xbd0da8ea	-0.034584917
216	0xbdc674c4	-0.0969024
217	0x3ed9dda9	0.42551926
218	0x3f12d4bc	0.57355857
219	0x3ef9ba32	0.48774868
220	0x3ef5e2d5	0.48024622
221	0xbf01db94	-0.50725675
222	0x3ee574e1	0.44815734
223	0x3f00e3d4	0.5034764
224	0x3ebe132b	0.37124
225	0x3f032b48	0.51237917
226	0x3f092fbf	0.5358848
227	0xbeac080b	-0.33599886
228	0x3eaa8d44	0.33310902
229	0xbe81990f	-0.25312087
230	0x3ec9d8f9	0.3942335
231	0xbe8d966f	-0.27653834
232	0x3ea3092a	0.3184293
233	0xbf0021e4	-0.50051713
234	0xbecdd434	-0.4020096
235	0x3f0d83d2	0.55279267
236	0xbd9366cb	-0.071973406
237	0x3f461bdf	0.7738628
238	0x3f36fba5	0.7147773
239	0xbd35bcf2	-0.044369645
240	0x3e493e39	0.19652642
241	0x3e8d8867	0.2764313
242	0xbec32e5a	-0.381213
243	0x3f135762	0.5755521
244	0x3d8fd336	0.07022707
245	0x3ede1420	0.4337473
246	0xbebd56e0	-0.36980343
247	0xbea7cd92	-0.32774025
248	0xbe3bd2e7	-0.18342172
249	0x3ea77657	0.32707474
250	0x3f01d52e	0.5071591
251	0xbe913e31	-0.2836776
252	0xbcfef965	-0.03112478
253	0x3ea5b028	0.3236096
254	0x3ea9642e	0.33084244
255	0x3e5ca161	0.21545936

ll1.bias f4 [8]
0	0x3f88d8ee	1.0691202
1	0x3f0a5608	0.54037523
2	0x3f425b61	0.75920683
3	0x3f599354	0.8499043
4	0x3f02547a	0.5091015
5	0x3f0da94e	0.55336463
6	0x3f3a3f40	0.7275276
7	0x3f27ab6b	0.6549594

ll2.weight f4 [8, 8]
0	0x3fa28a52	1.2698462
1	0xbe2834e0	-0.1642642
2	0xbf310a62	-0.6915647
3	0x3f63501a	0.887941
4	0xbe9d0b23	-0.3067256
5	0x3f5e1477	0.86749977
6	0x3f8ac970	1.0842724
7	0xbf5ab6ea	-0.85435355
8	0x3ebb2c2d	0.3655714
9	0x3f93c5a1	1.1544687
10	0x3f092f82	0.53588116
11	0xbf3e6602	-0.743744
12	0x3f9e604a	1.2373135
13	0x3f80eeed	1.0072914
14	0x3f0fccc1	0.56171805
15	0x3ead4431	0.33841088
16	0x3ddc4d9c	0.1075699
17	0x3f91f66d	1.1403328
18	0x3f15191f	0.58241457
19	0x3eb477a9	0.35247543
20	0x3f935d0f	1.1512774
21	0xbf904243	-1.1270221
22	0x3f0f12de	0.55888164
23	0x3f90874d	1.129129
24	0xbdaabc38	-0.08336681
25	0xbcf54f10	-0.029944927
26	0xbdfc46e4	-0.12318209
27	0xbdc3306c	-0.0953072
28	0x3e076c26	0.13224849
29	0xbe937f59	-0.28808096
30	0xbe9409b0	-0.2891364
31	0xbe89f9a8	-0.26948285
32	0xbe12b621	-0.14327289
33	0xbcf4cd30	-0.029882997
34	0xbd90ee90	-0.07076752
35	0xbeb2d886	-0.3493082
36	0xbe9d463a	-0.3071764
37	0xbdc9e7e8	-0.09858686
38	0xbe875b9d	-0.26437083
39	0x3e29c08a	0.16577354
40	0x3f63ce6b	0.88986844
41	0xbec50e41	-0.38487437
42	0xbd807c97	-0.062737636
43	0x3fa65d9b	1.2997316
44	0xbf58419a	-0.844751
45	0xbf7fd633	-0.9993622
46	0x3f43c8fc	0.7647855
47	0x3f578836	0.84192216
48	0x3f23e8c3	0.6402704
49	0xbf449011	-0.7678233
50	0x3fb5e65f	1.4210929
51	0x3ecf15d4	0.4044634
52	0xbedbca39	-0.4292772
53	0x3f77b7bf	0.9676475
54	0xbf86b8d5	-1.0525156
55	0x3e240f37	0.16021429
56	0x3ea160e8	0.31519246
57	0xbe937bf1	-0.28805497
58	0x3f92882b	1.1447805
59	0xbf425703	-0.7591402
60	0x3e8e56ed	0.27800694
61	0x3f8c67ee	1.0969217
62	0xbf2565c7	-0.64608425
63	0x3e428076	0.18994316

ll2.bias f4 [8]
0	0x3f036acb	0.5133483
1	0xbd935a34	-0.07194939
2	0x3eff515f	0.4986677
3	0xbeb0341f	-0.34414765
4	0xbe633ff6	-0.22192368
5	0x3f32457e	0.69637287
6	0x3ebd9a83	0.37031946
7	0x3e891264	0.26771843

ll3.weight f4 [7, 8]
0	0x3f166836	0.58752763
1	0xbfe6281d	-1.7980992
2	0xbeb1541e	-0.3463449
3	0xbe2e4d8b	-0.17021768
4	0xbd0ba2e8	-0.034090906
5	0x3f156ce8	0.583693
6	0xbfb2438c	-1.3926864
7	0xbf4f1282	-0.80887616
8	0xbfb9776b	-1.4489568
9	0x3e20d8e7	0.15707742
10	0x3f3bf55d	0.7342127
11	0x3eaf615b	0.34253964
12	0x3e2d965a	0.16951886
13	0xbe958673	-0.2920414
14	0xbfc52d4f	-1.5404452
15	0xbf48517c	-0.78249335
16	0x3c8a187e	0.016857382
17	0xbfb57149	-1.4175197
18	0xbd7d644b	-0.061863225
19	0x3e73426a	0.23755804
20	0x3e8e04a3	0.27737913
21	0x3e5bca47	0.21463881
22	0x3ed874c7	0.42276594
23	0xbe0e7356	-0.13911185
24	0x3ed3abb6	0.41341943
25	0x3db31428	0.08744079
26	0x3e1ed0b6	0.15509304
27	0xbe610a08	-0.21976483
28	0xb95fb800	-0.00021335483
29	0xbe0baf62	-0.13641122
30	0xbfb9b079	-1.450698
31	0xbf8bbcfb	-1.0917047
32	0x3f3ab3fa	0.7293087
33	0xbef746d3	-0.48296222
34	0xbfac6dd7	-1.347102
35	0x3d5b12e8	0.053484827
36	0x3d0734f8	0.0330095
37	0xbf05af6b	-0.5222079
38	0x3e5f0b54	0.21781665
39	0xbe1f440c	-0.15553302
40	0xbfa88913	-1.3166832
41	0x3e9e174d	0.30877152
42	0x3df87c12	0.121330395
43	0xbea1400b	-0.31494173
44	0x3e4410ca	0.1914703
45	0xbf88a622	-1.06757
46	0xbe529ee5	-0.20568426
47	0x3ede07e7	0.43365404
48	0xbe81ce38	-0.25352645
49	0x3c23e5f1	0.010003553
50	0xbfa4672a	-1.2843983
51	0xbe1bfbe3	-0.15232806
52	0x3d3c4608	0.045965225
53	0xbfac18f5	-1.3445116
54	0x3ef72991	0.482739
55	0x3f59beec	0.8505695

ll3.bias f4 [7]
0	0xbe8818e9	-0.26581505
1	0xbe446bdf	-0.19181775
2	0xbd02274f	-0.03177577
3	0x3eb5c420	0.35501194
4	0xbe9a492a	-0.30133945
5	0x3e5c8a50	0.21537137
6	0x3ec4d1de	0.38441366
